已经成功加载模型，该模型训练的轮数为76,训练的最终损失为1.5718204975128174,开始进行SNN的转化。
CombinedModel(
  (bisenet): BiSeNetV2(
    (detail): DetailBranch(
      (S1): Sequential(
        (0): ConvBNReLU(
          (conv): Conv2d(3, 64, kernel_size=(3, 3), stride=(2, 2), padding=(1, 1), bias=False)
          (bn): BatchNorm2d(64, eps=1e-05, momentum=0.1, affine=True, track_running_stats=True)
          (relu): ReLU(inplace=True)
        )
        (1): ConvBNReLU(
          (conv): Conv2d(64, 64, kernel_size=(3, 3), stride=(1, 1), padding=(1, 1), bias=False)
          (bn): BatchNorm2d(64, eps=1e-05, momentum=0.1, affine=True, track_running_stats=True)
          (relu): ReLU(inplace=True)
        )
      )
      (S2): Sequential(
        (0): ConvBNReLU(
          (conv): Conv2d(64, 64, kernel_size=(3, 3), stride=(2, 2), padding=(1, 1), bias=False)
          (bn): BatchNorm2d(64, eps=1e-05, momentum=0.1, affine=True, track_running_stats=True)
          (relu): ReLU(inplace=True)
        )
        (1): ConvBNReLU(
          (conv): Conv2d(64, 64, kernel_size=(3, 3), stride=(1, 1), padding=(1, 1), bias=False)
          (bn): BatchNorm2d(64, eps=1e-05, momentum=0.1, affine=True, track_running_stats=True)
          (relu): ReLU(inplace=True)
        )
        (2): ConvBNReLU(
          (conv): Conv2d(64, 64, kernel_size=(3, 3), stride=(1, 1), padding=(1, 1), bias=False)
          (bn): BatchNorm2d(64, eps=1e-05, momentum=0.1, affine=True, track_running_stats=True)
          (relu): ReLU(inplace=True)
        )
      )
      (S3): Sequential(
        (0): ConvBNReLU(
          (conv): Conv2d(64, 128, kernel_size=(3, 3), stride=(2, 2), padding=(1, 1), bias=False)
          (bn): BatchNorm2d(128, eps=1e-05, momentum=0.1, affine=True, track_running_stats=True)
          (relu): ReLU(inplace=True)
        )
        (1): ConvBNReLU(
          (conv): Conv2d(128, 128, kernel_size=(3, 3), stride=(1, 1), padding=(1, 1), bias=False)
          (bn): BatchNorm2d(128, eps=1e-05, momentum=0.1, affine=True, track_running_stats=True)
          (relu): ReLU(inplace=True)
        )
        (2): ConvBNReLU(
          (conv): Conv2d(128, 128, kernel_size=(3, 3), stride=(1, 1), padding=(1, 1), bias=False)
          (bn): BatchNorm2d(128, eps=1e-05, momentum=0.1, affine=True, track_running_stats=True)
          (relu): ReLU(inplace=True)
        )
      )
    )
    (segment): SegmentBranch(
      (S1S2): StemBlock(
        (conv): ConvBNReLU(
          (conv): Conv2d(3, 16, kernel_size=(3, 3), stride=(2, 2), padding=(1, 1), bias=False)
          (bn): BatchNorm2d(16, eps=1e-05, momentum=0.1, affine=True, track_running_stats=True)
          (relu): ReLU(inplace=True)
        )
        (left): Sequential(
          (0): ConvBNReLU(
            (conv): Conv2d(16, 8, kernel_size=(1, 1), stride=(1, 1), bias=False)
            (bn): BatchNorm2d(8, eps=1e-05, momentum=0.1, affine=True, track_running_stats=True)
            (relu): ReLU(inplace=True)
          )
          (1): ConvBNReLU(
            (conv): Conv2d(8, 16, kernel_size=(3, 3), stride=(2, 2), padding=(1, 1), bias=False)
            (bn): BatchNorm2d(16, eps=1e-05, momentum=0.1, affine=True, track_running_stats=True)
            (relu): ReLU(inplace=True)
          )
        )
        (right): MaxPool2d(kernel_size=3, stride=2, padding=1, dilation=1, ceil_mode=False)
        (fuse): ConvBNReLU(
          (conv): Conv2d(32, 16, kernel_size=(3, 3), stride=(1, 1), padding=(1, 1), bias=False)
          (bn): BatchNorm2d(16, eps=1e-05, momentum=0.1, affine=True, track_running_stats=True)
          (relu): ReLU(inplace=True)
        )
      )
      (S3): Sequential(
        (0): GELayerS2(
          (conv1): ConvBNReLU(
            (conv): Conv2d(16, 16, kernel_size=(3, 3), stride=(1, 1), padding=(1, 1), bias=False)
            (bn): BatchNorm2d(16, eps=1e-05, momentum=0.1, affine=True, track_running_stats=True)
            (relu): ReLU(inplace=True)
          )
          (dwconv1): Sequential(
            (0): Conv2d(16, 96, kernel_size=(3, 3), stride=(2, 2), padding=(1, 1), groups=16, bias=False)
            (1): BatchNorm2d(96, eps=1e-05, momentum=0.1, affine=True, track_running_stats=True)
          )
          (dwconv2): Sequential(
            (0): Conv2d(96, 96, kernel_size=(3, 3), stride=(1, 1), padding=(1, 1), groups=96, bias=False)
            (1): BatchNorm2d(96, eps=1e-05, momentum=0.1, affine=True, track_running_stats=True)
            (2): ReLU(inplace=True)
          )
          (conv2): Sequential(
            (0): Conv2d(96, 32, kernel_size=(1, 1), stride=(1, 1), bias=False)
            (1): BatchNorm2d(32, eps=1e-05, momentum=0.1, affine=True, track_running_stats=True)
          )
          (shortcut): Sequential(
            (0): Conv2d(16, 16, kernel_size=(3, 3), stride=(2, 2), padding=(1, 1), groups=16, bias=False)
            (1): BatchNorm2d(16, eps=1e-05, momentum=0.1, affine=True, track_running_stats=True)
            (2): Conv2d(16, 32, kernel_size=(1, 1), stride=(1, 1), bias=False)
            (3): BatchNorm2d(32, eps=1e-05, momentum=0.1, affine=True, track_running_stats=True)
          )
          (relu): ReLU(inplace=True)
        )
        (1): GELayerS1(
          (conv1): ConvBNReLU(
            (conv): Conv2d(32, 32, kernel_size=(3, 3), stride=(1, 1), padding=(1, 1), bias=False)
            (bn): BatchNorm2d(32, eps=1e-05, momentum=0.1, affine=True, track_running_stats=True)
            (relu): ReLU(inplace=True)
          )
          (dwconv): Sequential(
            (0): Conv2d(32, 192, kernel_size=(3, 3), stride=(1, 1), padding=(1, 1), groups=32, bias=False)
            (1): BatchNorm2d(192, eps=1e-05, momentum=0.1, affine=True, track_running_stats=True)
            (2): ReLU(inplace=True)
          )
          (conv2): Sequential(
            (0): Conv2d(192, 32, kernel_size=(1, 1), stride=(1, 1), bias=False)
            (1): BatchNorm2d(32, eps=1e-05, momentum=0.1, affine=True, track_running_stats=True)
          )
          (relu): ReLU(inplace=True)
        )
      )
      (S4): Sequential(
        (0): GELayerS2(
          (conv1): ConvBNReLU(
            (conv): Conv2d(32, 32, kernel_size=(3, 3), stride=(1, 1), padding=(1, 1), bias=False)
            (bn): BatchNorm2d(32, eps=1e-05, momentum=0.1, affine=True, track_running_stats=True)
            (relu): ReLU(inplace=True)
          )
          (dwconv1): Sequential(
            (0): Conv2d(32, 192, kernel_size=(3, 3), stride=(2, 2), padding=(1, 1), groups=32, bias=False)
            (1): BatchNorm2d(192, eps=1e-05, momentum=0.1, affine=True, track_running_stats=True)
          )
          (dwconv2): Sequential(
            (0): Conv2d(192, 192, kernel_size=(3, 3), stride=(1, 1), padding=(1, 1), groups=192, bias=False)
            (1): BatchNorm2d(192, eps=1e-05, momentum=0.1, affine=True, track_running_stats=True)
            (2): ReLU(inplace=True)
          )
          (conv2): Sequential(
            (0): Conv2d(192, 64, kernel_size=(1, 1), stride=(1, 1), bias=False)
            (1): BatchNorm2d(64, eps=1e-05, momentum=0.1, affine=True, track_running_stats=True)
          )
          (shortcut): Sequential(
            (0): Conv2d(32, 32, kernel_size=(3, 3), stride=(2, 2), padding=(1, 1), groups=32, bias=False)
            (1): BatchNorm2d(32, eps=1e-05, momentum=0.1, affine=True, track_running_stats=True)
            (2): Conv2d(32, 64, kernel_size=(1, 1), stride=(1, 1), bias=False)
            (3): BatchNorm2d(64, eps=1e-05, momentum=0.1, affine=True, track_running_stats=True)
          )
          (relu): ReLU(inplace=True)
        )
        (1): GELayerS1(
          (conv1): ConvBNReLU(
            (conv): Conv2d(64, 64, kernel_size=(3, 3), stride=(1, 1), padding=(1, 1), bias=False)
            (bn): BatchNorm2d(64, eps=1e-05, momentum=0.1, affine=True, track_running_stats=True)
            (relu): ReLU(inplace=True)
          )
          (dwconv): Sequential(
            (0): Conv2d(64, 384, kernel_size=(3, 3), stride=(1, 1), padding=(1, 1), groups=64, bias=False)
            (1): BatchNorm2d(384, eps=1e-05, momentum=0.1, affine=True, track_running_stats=True)
            (2): ReLU(inplace=True)
          )
          (conv2): Sequential(
            (0): Conv2d(384, 64, kernel_size=(1, 1), stride=(1, 1), bias=False)
            (1): BatchNorm2d(64, eps=1e-05, momentum=0.1, affine=True, track_running_stats=True)
          )
          (relu): ReLU(inplace=True)
        )
      )
      (S5_4): Sequential(
        (0): GELayerS2(
          (conv1): ConvBNReLU(
            (conv): Conv2d(64, 64, kernel_size=(3, 3), stride=(1, 1), padding=(1, 1), bias=False)
            (bn): BatchNorm2d(64, eps=1e-05, momentum=0.1, affine=True, track_running_stats=True)
            (relu): ReLU(inplace=True)
          )
          (dwconv1): Sequential(
            (0): Conv2d(64, 384, kernel_size=(3, 3), stride=(2, 2), padding=(1, 1), groups=64, bias=False)
            (1): BatchNorm2d(384, eps=1e-05, momentum=0.1, affine=True, track_running_stats=True)
          )
          (dwconv2): Sequential(
            (0): Conv2d(384, 384, kernel_size=(3, 3), stride=(1, 1), padding=(1, 1), groups=384, bias=False)
            (1): BatchNorm2d(384, eps=1e-05, momentum=0.1, affine=True, track_running_stats=True)
            (2): ReLU(inplace=True)
          )
          (conv2): Sequential(
            (0): Conv2d(384, 128, kernel_size=(1, 1), stride=(1, 1), bias=False)
            (1): BatchNorm2d(128, eps=1e-05, momentum=0.1, affine=True, track_running_stats=True)
          )
          (shortcut): Sequential(
            (0): Conv2d(64, 64, kernel_size=(3, 3), stride=(2, 2), padding=(1, 1), groups=64, bias=False)
            (1): BatchNorm2d(64, eps=1e-05, momentum=0.1, affine=True, track_running_stats=True)
            (2): Conv2d(64, 128, kernel_size=(1, 1), stride=(1, 1), bias=False)
            (3): BatchNorm2d(128, eps=1e-05, momentum=0.1, affine=True, track_running_stats=True)
          )
          (relu): ReLU(inplace=True)
        )
        (1): GELayerS1(
          (conv1): ConvBNReLU(
            (conv): Conv2d(128, 128, kernel_size=(3, 3), stride=(1, 1), padding=(1, 1), bias=False)
            (bn): BatchNorm2d(128, eps=1e-05, momentum=0.1, affine=True, track_running_stats=True)
            (relu): ReLU(inplace=True)
          )
          (dwconv): Sequential(
            (0): Conv2d(128, 768, kernel_size=(3, 3), stride=(1, 1), padding=(1, 1), groups=128, bias=False)
            (1): BatchNorm2d(768, eps=1e-05, momentum=0.1, affine=True, track_running_stats=True)
            (2): ReLU(inplace=True)
          )
          (conv2): Sequential(
            (0): Conv2d(768, 128, kernel_size=(1, 1), stride=(1, 1), bias=False)
            (1): BatchNorm2d(128, eps=1e-05, momentum=0.1, affine=True, track_running_stats=True)
          )
          (relu): ReLU(inplace=True)
        )
        (2): GELayerS1(
          (conv1): ConvBNReLU(
            (conv): Conv2d(128, 128, kernel_size=(3, 3), stride=(1, 1), padding=(1, 1), bias=False)
            (bn): BatchNorm2d(128, eps=1e-05, momentum=0.1, affine=True, track_running_stats=True)
            (relu): ReLU(inplace=True)
          )
          (dwconv): Sequential(
            (0): Conv2d(128, 768, kernel_size=(3, 3), stride=(1, 1), padding=(1, 1), groups=128, bias=False)
            (1): BatchNorm2d(768, eps=1e-05, momentum=0.1, affine=True, track_running_stats=True)
            (2): ReLU(inplace=True)
          )
          (conv2): Sequential(
            (0): Conv2d(768, 128, kernel_size=(1, 1), stride=(1, 1), bias=False)
            (1): BatchNorm2d(128, eps=1e-05, momentum=0.1, affine=True, track_running_stats=True)
          )
          (relu): ReLU(inplace=True)
        )
        (3): GELayerS1(
          (conv1): ConvBNReLU(
            (conv): Conv2d(128, 128, kernel_size=(3, 3), stride=(1, 1), padding=(1, 1), bias=False)
            (bn): BatchNorm2d(128, eps=1e-05, momentum=0.1, affine=True, track_running_stats=True)
            (relu): ReLU(inplace=True)
          )
          (dwconv): Sequential(
            (0): Conv2d(128, 768, kernel_size=(3, 3), stride=(1, 1), padding=(1, 1), groups=128, bias=False)
            (1): BatchNorm2d(768, eps=1e-05, momentum=0.1, affine=True, track_running_stats=True)
            (2): ReLU(inplace=True)
          )
          (conv2): Sequential(
            (0): Conv2d(768, 128, kernel_size=(1, 1), stride=(1, 1), bias=False)
            (1): BatchNorm2d(128, eps=1e-05, momentum=0.1, affine=True, track_running_stats=True)
          )
          (relu): ReLU(inplace=True)
        )
      )
      (S5_5): CEBlock(
        (bn): BatchNorm2d(128, eps=1e-05, momentum=0.1, affine=True, track_running_stats=True)
        (conv_gap): ConvBNReLU(
          (conv): Conv2d(128, 128, kernel_size=(1, 1), stride=(1, 1), bias=False)
          (bn): BatchNorm2d(128, eps=1e-05, momentum=0.1, affine=True, track_running_stats=True)
          (relu): ReLU(inplace=True)
        )
        (conv_last): ConvBNReLU(
          (conv): Conv2d(128, 128, kernel_size=(3, 3), stride=(1, 1), padding=(1, 1), bias=False)
          (bn): BatchNorm2d(128, eps=1e-05, momentum=0.1, affine=True, track_running_stats=True)
          (relu): ReLU(inplace=True)
        )
      )
    )
    (bga): BGALayer(
      (left1): Sequential(
        (0): Conv2d(128, 128, kernel_size=(3, 3), stride=(1, 1), padding=(1, 1), groups=128, bias=False)
        (1): BatchNorm2d(128, eps=1e-05, momentum=0.1, affine=True, track_running_stats=True)
        (2): Conv2d(128, 128, kernel_size=(1, 1), stride=(1, 1), bias=False)
      )
      (left2): Sequential(
        (0): Conv2d(128, 128, kernel_size=(3, 3), stride=(2, 2), padding=(1, 1), bias=False)
        (1): BatchNorm2d(128, eps=1e-05, momentum=0.1, affine=True, track_running_stats=True)
        (2): AvgPool2d(kernel_size=3, stride=2, padding=1)
      )
      (right1): Sequential(
        (0): Conv2d(128, 128, kernel_size=(3, 3), stride=(1, 1), padding=(1, 1), bias=False)
        (1): BatchNorm2d(128, eps=1e-05, momentum=0.1, affine=True, track_running_stats=True)
      )
      (right2): Sequential(
        (0): Conv2d(128, 128, kernel_size=(3, 3), stride=(1, 1), padding=(1, 1), groups=128, bias=False)
        (1): BatchNorm2d(128, eps=1e-05, momentum=0.1, affine=True, track_running_stats=True)
        (2): Conv2d(128, 128, kernel_size=(1, 1), stride=(1, 1), bias=False)
      )
      (up1): Upsample(scale_factor=4.0, mode=nearest)
      (up2): Upsample(scale_factor=4.0, mode=nearest)
      (conv): Sequential(
        (0): Conv2d(128, 128, kernel_size=(3, 3), stride=(1, 1), padding=(1, 1), bias=False)
        (1): BatchNorm2d(128, eps=1e-05, momentum=0.1, affine=True, track_running_stats=True)
        (2): ReLU(inplace=True)
      )
    )
    (binary_head): Binary_SegmentHead(
      (conv): ConvBNReLU(
        (conv): Conv2d(128, 1024, kernel_size=(3, 3), stride=(1, 1), padding=(1, 1), bias=False)
        (bn): BatchNorm2d(1024, eps=1e-05, momentum=0.1, affine=True, track_running_stats=True)
        (relu): ReLU(inplace=True)
      )
      (drop): Dropout(p=0.1, inplace=False)
      (conv_out): Sequential(
        (0): Identity()
        (1): Conv2d(1024, 2, kernel_size=(1, 1), stride=(1, 1))
        (2): Upsample(scale_factor=8.0, mode=bilinear)
      )
    )
    (instance_head): Instance_SegmentHead(
      (conv): ConvBNReLU(
        (conv): Conv2d(128, 1024, kernel_size=(3, 3), stride=(1, 1), padding=(1, 1), bias=False)
        (bn): BatchNorm2d(1024, eps=1e-05, momentum=0.1, affine=True, track_running_stats=True)
        (relu): ReLU(inplace=True)
      )
      (drop): Dropout(p=0.1, inplace=False)
      (conv_out): Sequential(
        (0): Identity()
        (1): Conv2d(1024, 128, kernel_size=(1, 1), stride=(1, 1))
        (2): Upsample(scale_factor=8.0, mode=bilinear)
      )
    )
  )
  (backend): LaneNetBackEnd(
    (seg_conv_bn): BatchNorm2d(128, eps=1e-05, momentum=0.1, affine=True, track_running_stats=True)
    (seg_conv_relu): ReLU()
    (seg_conv): Conv2d(128, 4, kernel_size=(1, 1), stride=(1, 1))
  )
)
CombinedModel(
  (bisenet): Module(
    (detail): Module(
      (S1): Module(
        (0): Module(
          (conv): Conv2d(3, 64, kernel_size=(3, 3), stride=(2, 2), padding=(1, 1))
        )
        (1): Module(
          (conv): Conv2d(64, 64, kernel_size=(3, 3), stride=(1, 1), padding=(1, 1))
        )
      )
      (S2): Module(
        (0): Module(
          (conv): Conv2d(64, 64, kernel_size=(3, 3), stride=(2, 2), padding=(1, 1))
        )
        (1): Module(
          (conv): Conv2d(64, 64, kernel_size=(3, 3), stride=(1, 1), padding=(1, 1))
        )
        (2): Module(
          (conv): Conv2d(64, 64, kernel_size=(3, 3), stride=(1, 1), padding=(1, 1))
        )
      )
      (S3): Module(
        (0): Module(
          (conv): Conv2d(64, 128, kernel_size=(3, 3), stride=(2, 2), padding=(1, 1))
        )
        (1): Module(
          (conv): Conv2d(128, 128, kernel_size=(3, 3), stride=(1, 1), padding=(1, 1))
        )
        (2): Module(
          (conv): Conv2d(128, 128, kernel_size=(3, 3), stride=(1, 1), padding=(1, 1))
        )
      )
    )
    (segment): Module(
      (S1S2): Module(
        (conv): Module(
          (conv): Conv2d(3, 16, kernel_size=(3, 3), stride=(2, 2), padding=(1, 1))
        )
        (left): Module(
          (0): Module(
            (conv): Conv2d(16, 8, kernel_size=(1, 1), stride=(1, 1))
          )
          (1): Module(
            (conv): Conv2d(8, 16, kernel_size=(3, 3), stride=(2, 2), padding=(1, 1))
          )
        )
        (right): MaxPool2d(kernel_size=3, stride=2, padding=1, dilation=1, ceil_mode=False)
        (fuse): Module(
          (conv): Conv2d(32, 16, kernel_size=(3, 3), stride=(1, 1), padding=(1, 1))
        )
      )
      (S3): Module(
        (0): Module(
          (conv1): Module(
            (conv): Conv2d(16, 16, kernel_size=(3, 3), stride=(1, 1), padding=(1, 1))
          )
          (dwconv1): Module(
            (0): Conv2d(16, 96, kernel_size=(3, 3), stride=(2, 2), padding=(1, 1), groups=16)
          )
          (dwconv2): Module(
            (0): Conv2d(96, 96, kernel_size=(3, 3), stride=(1, 1), padding=(1, 1), groups=96)
          )
          (conv2): Module(
            (0): Conv2d(96, 32, kernel_size=(1, 1), stride=(1, 1))
          )
          (shortcut): Module(
            (0): Conv2d(16, 16, kernel_size=(3, 3), stride=(2, 2), padding=(1, 1), groups=16)
            (2): Conv2d(16, 32, kernel_size=(1, 1), stride=(1, 1))
          )
        )
        (1): Module(
          (conv1): Module(
            (conv): Conv2d(32, 32, kernel_size=(3, 3), stride=(1, 1), padding=(1, 1))
          )
          (dwconv): Module(
            (0): Conv2d(32, 192, kernel_size=(3, 3), stride=(1, 1), padding=(1, 1), groups=32)
          )
          (conv2): Module(
            (0): Conv2d(192, 32, kernel_size=(1, 1), stride=(1, 1))
          )
        )
      )
      (S4): Module(
        (0): Module(
          (conv1): Module(
            (conv): Conv2d(32, 32, kernel_size=(3, 3), stride=(1, 1), padding=(1, 1))
          )
          (dwconv1): Module(
            (0): Conv2d(32, 192, kernel_size=(3, 3), stride=(2, 2), padding=(1, 1), groups=32)
          )
          (dwconv2): Module(
            (0): Conv2d(192, 192, kernel_size=(3, 3), stride=(1, 1), padding=(1, 1), groups=192)
          )
          (conv2): Module(
            (0): Conv2d(192, 64, kernel_size=(1, 1), stride=(1, 1))
          )
          (shortcut): Module(
            (0): Conv2d(32, 32, kernel_size=(3, 3), stride=(2, 2), padding=(1, 1), groups=32)
            (2): Conv2d(32, 64, kernel_size=(1, 1), stride=(1, 1))
          )
        )
        (1): Module(
          (conv1): Module(
            (conv): Conv2d(64, 64, kernel_size=(3, 3), stride=(1, 1), padding=(1, 1))
          )
          (dwconv): Module(
            (0): Conv2d(64, 384, kernel_size=(3, 3), stride=(1, 1), padding=(1, 1), groups=64)
          )
          (conv2): Module(
            (0): Conv2d(384, 64, kernel_size=(1, 1), stride=(1, 1))
          )
        )
      )
      (S5_4): Module(
        (0): Module(
          (conv1): Module(
            (conv): Conv2d(64, 64, kernel_size=(3, 3), stride=(1, 1), padding=(1, 1))
          )
          (dwconv1): Module(
            (0): Conv2d(64, 384, kernel_size=(3, 3), stride=(2, 2), padding=(1, 1), groups=64)
          )
          (dwconv2): Module(
            (0): Conv2d(384, 384, kernel_size=(3, 3), stride=(1, 1), padding=(1, 1), groups=384)
          )
          (conv2): Module(
            (0): Conv2d(384, 128, kernel_size=(1, 1), stride=(1, 1))
          )
          (shortcut): Module(
            (0): Conv2d(64, 64, kernel_size=(3, 3), stride=(2, 2), padding=(1, 1), groups=64)
            (2): Conv2d(64, 128, kernel_size=(1, 1), stride=(1, 1))
          )
        )
        (1): Module(
          (conv1): Module(
            (conv): Conv2d(128, 128, kernel_size=(3, 3), stride=(1, 1), padding=(1, 1))
          )
          (dwconv): Module(
            (0): Conv2d(128, 768, kernel_size=(3, 3), stride=(1, 1), padding=(1, 1), groups=128)
          )
          (conv2): Module(
            (0): Conv2d(768, 128, kernel_size=(1, 1), stride=(1, 1))
          )
        )
        (2): Module(
          (conv1): Module(
            (conv): Conv2d(128, 128, kernel_size=(3, 3), stride=(1, 1), padding=(1, 1))
          )
          (dwconv): Module(
            (0): Conv2d(128, 768, kernel_size=(3, 3), stride=(1, 1), padding=(1, 1), groups=128)
          )
          (conv2): Module(
            (0): Conv2d(768, 128, kernel_size=(1, 1), stride=(1, 1))
          )
        )
        (3): Module(
          (conv1): Module(
            (conv): Conv2d(128, 128, kernel_size=(3, 3), stride=(1, 1), padding=(1, 1))
          )
          (dwconv): Module(
            (0): Conv2d(128, 768, kernel_size=(3, 3), stride=(1, 1), padding=(1, 1), groups=128)
          )
          (conv2): Module(
            (0): Conv2d(768, 128, kernel_size=(1, 1), stride=(1, 1))
          )
        )
      )
      (S5_5): Module(
        (bn): BatchNorm2d(128, eps=1e-05, momentum=0.1, affine=True, track_running_stats=True)
        (conv_gap): Module(
          (conv): Conv2d(128, 128, kernel_size=(1, 1), stride=(1, 1))
        )
        (conv_last): Module(
          (conv): Conv2d(128, 128, kernel_size=(3, 3), stride=(1, 1), padding=(1, 1))
        )
      )
    )
    (bga): Module(
      (left1): Module(
        (0): Conv2d(128, 128, kernel_size=(3, 3), stride=(1, 1), padding=(1, 1), groups=128)
        (2): Conv2d(128, 128, kernel_size=(1, 1), stride=(1, 1), bias=False)
      )
      (left2): Module(
        (0): Conv2d(128, 128, kernel_size=(3, 3), stride=(2, 2), padding=(1, 1))
        (2): AvgPool2d(kernel_size=3, stride=2, padding=1)
      )
      (right1): Module(
        (0): Conv2d(128, 128, kernel_size=(3, 3), stride=(1, 1), padding=(1, 1))
      )
      (right2): Module(
        (0): Conv2d(128, 128, kernel_size=(3, 3), stride=(1, 1), padding=(1, 1), groups=128)
        (2): Conv2d(128, 128, kernel_size=(1, 1), stride=(1, 1), bias=False)
      )
      (up1): Upsample(scale_factor=4.0, mode=nearest)
      (up2): Upsample(scale_factor=4.0, mode=nearest)
      (conv): Module(
        (0): Conv2d(128, 128, kernel_size=(3, 3), stride=(1, 1), padding=(1, 1))
      )
    )
    (binary_head): Module(
      (conv): Module(
        (conv): Conv2d(128, 1024, kernel_size=(3, 3), stride=(1, 1), padding=(1, 1))
      )
      (drop): Dropout(p=0.1, inplace=False)
      (conv_out): Module(
        (0): Identity()
        (1): Conv2d(1024, 2, kernel_size=(1, 1), stride=(1, 1))
        (2): Upsample(scale_factor=8.0, mode=bilinear)
      )
    )
    (instance_head): Module(
      (conv): Module(
        (conv): Conv2d(128, 1024, kernel_size=(3, 3), stride=(1, 1), padding=(1, 1))
      )
      (drop): Dropout(p=0.1, inplace=False)
      (conv_out): Module(
        (0): Identity()
        (1): Conv2d(1024, 128, kernel_size=(1, 1), stride=(1, 1))
        (2): Upsample(scale_factor=8.0, mode=bilinear)
      )
    )
  )
  (backend): Module(
    (seg_conv_bn): BatchNorm2d(128, eps=1e-05, momentum=0.1, affine=True, track_running_stats=True)
    (seg_conv): Conv2d(128, 4, kernel_size=(1, 1), stride=(1, 1))
  )
  (snn tailor): Module(
    (0): Module(
      (0): VoltageScaler(0.333062)
      (1): IFNode(
        v_threshold=1.0, v_reset=None, detach_reset=False, step_mode=s, backend=torch
        (surrogate_function): Sigmoid(alpha=4.0, spiking=True)
      )
      (2): VoltageScaler(3.002444)
    )
    (1): Module(
      (0): VoltageScaler(0.253183)
      (1): IFNode(
…
